developpement/MNIST/weights/mnist_net.pth (torch, 184095 bytes, 10 tensors)

conv1.weight f4 [8, 1, 5, 5]
000000 72 2b e7 bd f6 5b c4 bd af 5e 3d bd 70 fc 68 be
       -0.112875834 -0.09587853 -0.046232875 -0.22752547
000010 78 aa a4 be 51 09 2f be aa b6 a0 be 8b a1 dd be
       -0.32161307 -0.17093398 -0.31389362 -0.4328731
000020 c5 a1 ab be ab 8e d5 be 9e 4a 16 3e 7d 85 d1 3d
       -0.33521858 -0.4171041 0.14676902 0.10230539
000030 45 ea b5 be e3 9c b1 be d9 53 5b 3c f9 ba 82 bc
       -0.35530296 -0.34690008 0.01338669 -0.015958296
000040 6f 2b 3a 3e 17 4f be 3e 1d 04 dd 3e 5c d2 96 3e
       0.18180631 0.37169716 0.431672 0.29457366
000050 5a be f2 3e 52 33 8b 3e b5 cf e7 3e 3e 53 fa 3e
       0.47410852 0.27187592 0.45275655 0.48891634
000060 59 4d c7 3e af ce 17 be b3 49 91 be aa c5 4d be
       0.389262 -0.14824937 -0.2837654 -0.20094934
000070 65 e3 12 bd b9 34 cf 3d c0 03 9d 3c 6c ee 7c be
       -0.03586139 0.10117478 0.019166827 -0.24700326
000080 43 44 9e 3d d1 a6 fa bd a6 35 7b 3e ef 58 e5 bc
       0.07727864 -0.12238849 0.24532184 -0.027996508
000090 80 f9 3f be 1a 72 cc bc 08 c8 e3 3d 50 e6 6c 3e
       -0.1874752 -0.024956752 0.11122137 0.23134732
0000a0 38 13 28 be 20 96 29 be 3f 68 99 3e 29 6b 98 3e
       -0.16413581 -0.16561174 0.29962346 0.29769257
0000b0 57 9f f4 bc bf a2 2b 3e 80 03 43 3e 0e 06 af 3e
       -0.029861135 0.16761301 0.19044304 0.34184307
0000c0 d7 c2 88 3e 9a a2 80 be 51 5d 03 3e 6a 2b 09 be
       0.2671115 -0.25124055 0.12828566 -0.13395467
0000d0 1b 35 21 bd 55 b2 a2 3a ac 1c c4 bc f1 30 87 be
       -0.039357286 0.0012412766 -0.023939453 -0.26404527
0000e0 1d a8 86 be a1 95 83 be f3 f1 eb bc a6 be 3f be
       -0.26300135 -0.25700095 -0.028801894 -0.1872507
0000f0 e9 81 4a bc 9c b5 8b bd 20 84 58 be 5c 78 c2 bd
       -0.012360075 -0.068217486 -0.21144152 -0.09495613
000100 a2 3f 17 be 6e e4 f2 bb 62 ee 1d be 3b e4 3b bd
       -0.14770368 -0.007412485 -0.15422967 -0.045871954
000110 46 01 6c be eb d1 02 3d b8 2f 35 bd 28 cc 58 be
       -0.23047361 0.031938475 -0.04423496 -0.2117163
000120 dd 65 05 3d a9 b4 89 3d 5c 00 2b 3e 90 6d c5 bd
       0.032567848 0.06723911 0.16699356 -0.09640038
000130 08 e5 ff bc d6 bb 78 3e 3c f3 e2 bb 23 ac d6 3d
       -0.03123714 0.24290404 -0.0069259685 0.10482051
000140 55 43 25 3d 9b 01 41 be 67 2c 4d 3e 57 6e 4b bc
       0.040347416 -0.18848269 0.2003647 -0.012416444
000150 79 d7 99 bd cb 10 91 be 95 10 6c bb e9 eb 68 3e
       -0.07511801 -0.28333125 -0.0036020626 0.22746243
000160 cf ea 3f 3e 69 16 06 bd fa 2c 53 be 45 52 b2 bc
       0.18741916 -0.032736216 -0.20622626 -0.021767745
000170 76 9f 96 bd c9 41 cf 3e 04 b4 ed bd df 43 7d be
       -0.073546335 0.40479878 -0.11606601 -0.24732922
000180 8e 63 4c be 88 05 62 3e e7 8b ab 3e a1 56 35 3d
       -0.19959852 0.22072423 0.33505175 0.04427207
000190 de 31 00 be 01 89 71 3e 1c 39 60 3e 8f bd 8a 3e
       -0.12519023 0.23587419 0.21896785 0.27097747
0001a0 50 e6 99 be 05 96 30 3d 08 69 7e 3e eb f7 c3 3e
       -0.30058527 0.04311182 0.24844754 0.38275084
0001b0 47 ca 61 3e 3b 94 c6 be 54 52 2e be f2 7d a0 3e
       0.22049819 -0.38784966 -0.17023593 0.3134609
0001c0 28 62 91 3e d3 fa 2e 3e 86 6e 82 be 03 ec f1 bd
       0.283952 0.1708787 -0.25474948 -0.11812594
0001d0 cd e8 47 3d 85 6b 8f 3d 4a e0 dc 3d ea be 93 bd
       0.048806 0.070029296 0.10784967 -0.07214148
0001e0 83 1c 8b 3d d8 44 91 3d c1 18 b6 3e f8 7b a8 3e
       0.067925476 0.07093209 0.3556576 0.3290708
0001f0 88 0a 2f 3e 68 e6 b2 be 8c 0a 46 be b0 e5 c9 be
       0.17093861 -0.3494141 -0.19339961 -0.3943305
000200 d9 18 80 be 21 df e8 3d 12 63 20 be 07 ba db be
       -0.25018957 0.113706835 -0.15662792 -0.42915365
000210 db af a0 be 5b e8 14 3e 3e c1 f9 3e d1 af 54 be
       -0.31384167 0.14541762 0.48780245 -0.20770194
000220 e8 ca 78 be 4c e0 ff bd 4a 5d e1 3e 15 ce f2 3e
       -0.24296153 -0.12493953 0.44016486 0.47422853
000230 c0 65 41 be e7 3d 43 be d4 1e 02 3d 1f f0 05 3f
       -0.18886471 -0.19066583 0.03176768 0.5231952
000240 4c ce 9f 3e 67 65 d6 3d 24 11 cc 3d b0 1c 96 3e
       0.3121208 0.1046856 0.09964207 0.29318762
000250 66 64 62 3e 6f e7 9a 3c 70 74 86 be ba d4 46 3d
       0.22108611 0.018909184 -0.2626071 0.048542716
000260 dd 4e 51 be 0d bd 92 3d e3 8f 27 bc a9 83 db bd
       -0.2044024 0.07164965 -0.010227176 -0.107184716
000270 74 31 9e bd 85 10 82 3d 5a 24 d0 3d da 32 31 be
       -0.07724276 0.06350807 0.101631835 -0.17304555
000280 83 54 44 be 55 2a 54 be cd e8 2e 3b 36 94 e5 bd
       -0.19172864 -0.20719273 0.0026689053 -0.112099096
000290 66 4c 12 be 18 eb 93 be 60 4e d3 bd bb 81 1c be
       -0.14286956 -0.288903 -0.10317683 -0.15283863
0002a0 b5 a1 42 3e 3a fb 47 3e 4d 4d 8c be 32 ac ee 3b
       0.19006999 0.19529429 -0.27402726 0.007283711
0002b0 93 31 c6 bd cf 79 87 bd 6c b4 ed 3d 3c 1d 81 be
       -0.09677424 -0.0661503 0.11606678 -0.25217617
0002c0 76 f2 32 3d a2 02 4e be 3c f6 17 bd 48 fe a7 be
       0.04368826 -0.20118192 -0.03710006 -0.3281119
0002d0 19 3a 5b be 65 64 2c be d5 e7 22 be cb d1 29 be
       -0.21408881 -0.16835172 -0.1590875 -0.16583936
0002e0 9a 33 d8 bd de ff 5e 3e 47 d9 ba 3e 02 73 82 3e
       -0.10556717 0.21777293 0.36493894 0.2547837
0002f0 c8 88 90 bd a5 c0 03 3c 7b d7 32 3e 88 fc c3 3c
       -0.07057339 0.0080415355 0.17465012 0.023924127
000300 11 ff ae 3e 5e b1 b6 3e b4 89 35 3e 88 50 02 3e
       0.34178975 0.35682195 0.17728311 0.12726033
000310 8a 94 e4 bd 07 2f 8b be 8b 9f 87 3d 7b 1d 3d 3e
       -0.11161144 -0.27184317 0.06622227 0.18468277

conv1.bias f4 [8]
000000 6e 60 d1 3e 4c 5b c4 3e 8f 96 37 3e 5f ce 19 bd
       0.40893883 0.38350904 0.17928527 -0.037550326
000010 59 e2 e0 3e 2e e7 79 3d a4 ca 42 3e f9 2c 16 3e
       0.4392269 0.061011486 0.19022614 0.14665593

conv2.weight f4 [16, 8, 5, 5]
000000 d5 0b 99 bc 59 ed 1d bc f6 b5 c6 3d 3e cb 1e 3e
       -0.0186824 -0.009639108 0.09702675 0.15507218
000010 eb 9e 8e 3d 8e fd c9 3c 01 d4 42 3e 5b 69 e6 3d
       0.06963905 0.024657037 0.19026186 0.11250564
000020 a2 b4 42 3e ac e7 c5 3d 5a e3 27 bd f2 68 c2 3c
       0.19014218 0.096633285 -0.040988304 0.023731682
000030 30 88 3d bd d1 ed 3f bd 29 57 21 bc cd 7c 77 bd
       -0.046272457 -0.04685766 -0.009847441 -0.060421754
000040 1f 28 88 3d 44 3f af 3d b4 27 10 bc 6f 7d 58 bd
       0.066482775 0.08556989 -0.008798528 -0.052853998
000050 2c 15 15 3d a0 13 c1 bc 80 34 a5 bc ac 21 d1 3d
       0.036397144 -0.023568928 -0.020166636 0.102115005
000060 2c 83 16 3d f8 35 ba 3d 2a 5b 27 ba 5d ae 0e 3d
       0.03674619 0.09092325 -0.0006384129 0.034834255
000070 5c f1 c3 3b 3e e9 7d 3b 04 70 64 3d 79 f5 a3 3d
       0.0059797 0.003874376 0.05577089 0.080058046
000080 76 3d d4 3d 79 38 b2 3d 72 5d 74 3d 9f 66 2d 3d
       0.10363285 0.087021776 0.05965943 0.042334195
000090 63 26 82 3d 0f 5d 34 bd 7f 98 7c bd 3a 02 86 bd
       0.06354978 -0.04403406 -0.06166887 -0.065433934
0000a0 ff 31 2c bd a8 12 04 3d 16 a9 63 3b ad 8c 9b 3c
       -0.042039867 0.032244354 0.0034738234 0.018987978
0000b0 aa c5 27 bd 2c fb 25 bd af b4 02 3d 5e d9 ef bc
       -0.04095999 -0.04052274 0.031910595 -0.029278453
0000c0 f8 45 69 3d 5d 7d 49 3d d3 06 e5 bc 28 b9 af 3c
       0.056951493 0.04919182 -0.027957356 0.021450594
0000d0 16 94 16 3d 0a c9 55 3c a8 a6 31 3d 97 50 90 3d
       0.03676232 0.01304842 0.043371826 0.07046621
0000e0 51 07 b9 bc 4b f4 80 bd 7e 78 cb bd 2e 67 39 bd
       -0.022586497 -0.06296595 -0.099350914 -0.045264415
0000f0 d9 99 80 3c 05 6a c0 3b 99 09 58 b9 82 1f 33 bd
       0.01569836 0.0058720135 -0.0002060294 -0.04373122
000100 6b f7 5a bd 7d 67 36 3d 25 c8 28 bd c7 11 45 3c
       -0.053458612 0.044532288 -0.041206498 0.012028164
000110 6a e9 80 3d 86 34 37 bd 9a 02 b4 bb 03 48 92 3c
       0.0629452 -0.044727825 -0.005493474 0.017856603
000120 af 80 1b 3d e8 fd b8 3c 79 25 79 3d 38 df a6 bc
       0.03796452 0.02258201 0.060826752 -0.02037011
000130 ff 08 37 bd b3 7a 95 bd 67 ac 2f bd 6f 2c dd bc
       -0.044686314 -0.07298794 -0.042889025 -0.026998727
000140 a7 6b 11 bb b0 49 33 ba 74 88 9f bd 22 cf a6 bb
       -0.002218941 -0.00068392884 -0.07789698 -0.00509061
000150 2d 85 83 bd cc 67 25 bd 1a ab 25 bd b8 04 74 bd
       -0.06421886 -0.04038219 -0.04044638 -0.059574813
000160 72 8a 5e bd 27 27 5b bd 0d 82 15 bd f5 0a 99 bd
       -0.05433125 -0.053504135 -0.03650098 -0.07472793
000170 cb 14 b2 bd 43 72 a5 bc c0 ff bc bc af 00 75 bd
       -0.08695372 -0.020196086 -0.02307117 -0.059815105
000180 52 50 d9 bc de 7a 1e 3d 52 d2 a2 3c a6 ba 36 bd
       -0.026527558 0.038691394 0.01987568 -0.044611596
000190 e0 e3 36 bd 32 e0 12 bd 63 e9 91 3d 24 dd c5 3c
       -0.044650912 -0.03585834 0.07124593 0.0241533
0001a0 19 fb 65 bd b0 c3 7d 3d 8e 8e b3 3c cd ee d6 ba
       -0.05614767 0.0619542 0.021918561 -0.0016398072
0001b0 bd 91 78 bd 57 85 68 bd f0 89 5a 3d e2 d7 54 3d
       -0.06068586 -0.056767788 0.053354204 0.051963694
0001c0 b8 76 17 bd a6 2c bc 3c 38 1b 53 3c 4b d8 0c bc
       -0.036978453 0.022970509 0.012884907 -0.00859649
0001d0 9c f1 83 3d 56 e4 58 bd a4 4e d2 bd 37 4d 11 3d
       0.06442568 -0.052952133 -0.10268906 0.03547403
0001e0 16 eb 8d bd 57 e4 b0 bd 1b 87 6d 3c 79 0e 77 3c
       -0.06929605 -0.08637302 0.014497544 0.015079134
0001f0 cb ff 88 3c 91 c7 54 3d 11 34 aa 3c f5 c2 a7 bd
       0.016723534 0.051948134 0.02077678 -0.08191482
000200 e0 03 eb 3c 79 f8 26 3d b8 0b ae 3d cf 9c c0 bc
       0.028688371 0.040764306 0.08498329 -0.023512272
000210 0d 8a 16 3d 4e d5 d4 3c 71 5f 4e bd bb 59 db 3c
       0.03675275 0.025980618 -0.05038399 0.026776185
000220 28 f2 3a bd b1 12 6c bd 75 89 0b be e9 c7 90 bd
       -0.045641094 -0.057635013 -0.13626654 -0.0706938
000230 d4 47 7d bc 2b a5 56 bd 30 ae 8c bd 51 02 8b bd
       -0.01545902 -0.05240361 -0.06869161 -0.06787551
000240 49 e7 32 bd a5 40 2b bd f6 c3 92 bd df a4 3a bd
       -0.043677602 -0.041809697 -0.07166283 -0.04556739
000250 ac 9c 87 bc 7e 7d aa bc 2a 00 7b bc eb 67 a1 3c
       -0.0165542 -0.020811792 -0.015319863 0.019702872
000260 80 75 02 bd 3b 05 85 bd dc cf 9e bd 74 c8 7b 3d
       -0.031850338 -0.06495138 -0.0775449 0.061470464
000270 60 11 51 bd 3a 93 b0 bd fb d1 5d bd 0a a3 d0 3c
       -0.05104196 -0.08621831 -0.05415533 0.025468368
000280 86 0f e2 3c 4d 8b 54 3c 96 39 48 3d 76 3c 42 bc
       0.027595293 0.012972665 0.048883043 -0.011855235
000290 37 98 49 bd 70 7c e7 bc 3b 2b fb bc 12 df da 3b
       -0.04921743 -0.028257579 -0.030660262 0.006679424
0002a0 64 f6 4f bd 88 69 86 bd 1f f7 c6 3d 81 73 0e 3d
       -0.050772086 -0.06563097 0.09715103 0.03477812
0002b0 a1 ed 31 3d 2f 7c 40 3d 64 ff 84 3d ed 26 fd bb
       0.04343951 0.04699343 0.064940244 -0.0077255876
0002c0 92 7b be 3c b4 16 a5 3c 3d 8a 01 3b 60 0d c0 3d
       0.023252282 0.020152427 0.0019766234 0.09377551
0002d0 9b 0c ba bc 1f b3 b2 3c 5d b2 2c 3d 49 38 ec 3d
       -0.022711089 0.021813927 0.042162288 0.11534173
0002e0 0b e1 d4 3d a2 1a 1b bc ae 95 d0 bb 2f 7b c5 3d
       0.10394486 -0.009466799 -0.0063654995 0.09642636
0002f0 72 a4 97 3d 21 8d 06 bd 47 bf 3e bd 10 7c e2 bc
       0.07404412 -0.032849435 -0.046569135 -0.027647048
000300 8a 15 4f 3d a7 53 f2 bb 21 96 a0 b9 99 ad 54 bd
       0.05055765 -0.007395226 -0.00030629433 -0.051923368
000310 de 5c 94 3d af 4f eb 3c 03 50 b3 bc e4 d4 89 ba
       0.072442755 0.02872452 -0.021888738 -0.0010515717
000320 97 e8 25 3d c4 42 ea bc d7 0d 7c 3a c1 56 9d bd
       0.040505018 -0.02859629 0.00096150994 -0.076825626
000330 ed 4f ec bb 3f c2 2d bd 12 af 5c 3c ce a9 c6 3d
       -0.0072116763 -0.042421576 0.013469474 0.097003564
000340 07 1c f6 3d 11 be 37 3d fb 18 e4 3d 03 5c 12 3e
       0.120170645 0.044858996 0.11137577 0.14292912
000350 f4 26 19 3d 99 cf 9e 3d d6 a7 b2 3c 25 75 34 3e
       0.037390664 0.0775444 0.021808546 0.17622812
000360 96 47 0f 3e b6 1e 13 bd ad 83 ce bc d2 9d 4f bb
       0.13992152 -0.03591796 -0.025209272 -0.0031679762
000370 b6 12 93 3c e0 c3 f5 bb 91 b8 81 3d fb f6 bd 3b
       0.017953258 -0.0075001568 0.063340314 0.0057972646
000380 e5 2f 97 3d 8d d0 42 bd 77 8a 7b 3d 29 a0 c5 3d
       0.07382182 -0.04756217 0.061411347 0.09649689
000390 4c a3 01 3d e6 4a bb bb c1 50 d4 3d c2 85 aa 3c
       0.031649873 -0.0057157157 0.10366965 0.020815734
0003a0 7d b6 2c 3d 67 9e f4 3d 12 fd ba 3d 4c d2 92 3c
       0.042166222 0.11944275 0.091303006 0.017922543
0003b0 c0 c7 96 3d f6 e7 0c 3e 70 0c e9 3d 5a c3 b7 3d
       0.07362318 0.13760361 0.113793254 0.08972807
0003c0 18 4d 51 3d a2 d3 4d 3e c9 e8 86 3d 35 b0 89 bc
       0.051098913 0.20100263 0.06587369 -0.016807655
0003d0 b0 22 22 3d bb 5b b4 3d 56 aa 07 bd ca cf ee bd
       0.03958386 0.08806559 -0.03312143 -0.11660726
0003e0 2d ad 8a 3c 40 11 25 3d a8 d2 0d 3d cd 41 a5 3c
       0.01692828 0.040299654 0.034624726 0.020172978
0003f0 ef 3c af bc 4f ca 68 bd f3 00 4c bd 72 e0 7c 3d
       -0.02139136 -0.05683356 -0.049805593 0.061737485

conv2.bias f4 [16]
000000 8e 81 8b 3d 85 85 00 3d e8 48 65 3d da 3b 50 bc
       0.0681182 0.031377334 0.055977732 -0.012709582
000010 d1 83 44 bd 66 63 1c bd 15 2e 32 3d 6b 64 fd 3c
       -0.047977272 -0.03818073 0.04350098 0.030931672
000020 40 92 95 bc c8 a5 11 3c 59 a8 3d 3c 14 96 b6 bc
       -0.018258214 0.008889623 0.011575782 -0.02228836
000030 1a 52 23 bd d1 95 2e 3c b6 b0 7c 3c 1f 27 d8 3d
       -0.03987322 0.010655836 0.015422991 0.10554337

fc1.weight f4 [128, 256]
000000 02 98 1e 3d c6 98 f4 3b 96 00 23 bd 02 c9 28 bd
       0.038719185 0.007464501 -0.03979548 -0.04120732
000010 87 a5 95 bc 0a cd ef bc c5 d9 07 3c a2 17 fb 3b
       -0.018267406 -0.029272575 0.008291666 0.0076627294
000020 2b 43 4e bd 11 0d 94 bd 7c 53 66 3c 4b 97 fb 3b
       -0.050357025 -0.07229055 0.01405799 0.0076779476
000030 69 00 68 bd fc d1 07 3b a8 93 f8 3c dd cc 8f bc
       -0.056641016 0.0020724526 0.030343845 -0.017553741
000040 3a 7d b9 bc 63 11 a1 bd e3 0c f5 bc 81 10 80 3d
       -0.02264272 -0.078646444 -0.029913371 0.06253148
000050 65 17 d4 bc db 67 a1 bc 35 53 1c 3c a8 eb c6 bb
       -0.025890062 -0.019702842 0.0095413225 -0.006070573
000060 bd bb a0 bc 7a bc 0b 3c 8b 35 47 3d 4f a9 9a 3d
       -0.01962077 0.008528823 0.048635047 0.07551824
000070 f0 b8 40 bd 2f c1 e9 3c ba 14 26 bd fb d9 e4 3b
       -0.04705137 0.0285345 -0.04054711 0.006983993
000080 80 ab e7 3c 87 95 63 bd c9 83 fc bc bc d0 1f ba
       0.02828002 -0.055562522 -0.030824559 -0.00060964725
000090 92 0e d4 bb 07 d6 44 3b d8 d6 f6 3c 19 e7 31 bd
       -0.0064714635 0.0030034797 0.030131742 -0.043433283
0000a0 b5 d6 21 bd 5e 90 3e 3d c6 6a 16 3d a3 dc b3 3d
       -0.0395114 0.046524398 0.03672292 0.087823175
0000b0 d6 8c 1c bd 9d 74 b5 bc 42 28 80 3d fe 9b 34 bd
       -0.03822025 -0.022150332 0.062576786 -0.04409408
0000c0 a5 40 94 3b 63 12 14 bd 00 60 57 bc ff a0 b6 3d
       0.004524308 -0.036150347 -0.013145447 0.08917426
0000d0 1d 0b 34 bd 0d 63 6b 3c 24 7e b4 3d dd 55 c4 3c
       -0.04395591 0.014366877 0.08813122 0.023966724
0000e0 34 04 41 3d bf 9f d6 3c 9b c8 67 3c 28 6d e2 3c
       0.04712315 0.02619922 0.014146949 0.02763994
0000f0 e7 ea 00 3d 7b f0 4c bd 03 7a 79 3c 2c cc 31 bd
       0.03147402 -0.050034028 0.015226844 -0.043407604
000100 29 c6 9f bb 17 0a 98 3c a0 3c 1f bc 87 3a 87 3d
       -0.0048759175 0.018559499 -0.009719044 0.0660296
000110 e8 83 eb bc 1e c2 ae bc 82 f3 96 bd 29 ab 12 bd
       -0.028749421 -0.021332797 -0.07370664 -0.035807762
000120 a1 08 77 3d 66 ac e4 bc 5a f5 bd bc db ef ac 3d
       0.060310964 -0.027914237 -0.023188282 0.08444186
000130 ca ca 4c bd f7 d7 bc 3a a3 8b a0 bc 94 34 00 3d
       -0.049998082 0.0014407624 -0.019597834 0.031300142
000140 3d 46 a0 3c 23 00 a9 bc ca 9c 1a 3b 54 db a6 3c
       0.019564742 -0.020629948 0.0023591989 0.020368256
000150 4e 24 c1 3c 3f 3c 13 bd 0e 85 41 bd 86 31 0d 3d
       0.023576882 -0.035946127 -0.04724603 0.034471057
000160 3f 79 d9 bc 9b ce 09 bc e6 5d 0e bc 37 a9 7d 3c
       -0.026547072 -0.008411075 -0.008689379 0.0154822385
000170 e0 8a 91 3c d8 0d 8a 3c 73 9f 1e bd 39 a1 e3 3c
       0.017766416 0.016852304 -0.03872628 0.027786838
000180 b0 71 0f 3d 14 92 8b 3d 89 2b 36 bd 33 f5 57 bd
       0.03502053 0.068149716 -0.044475112 -0.052724075
000190 d1 3e d7 3c a3 97 05 3d 84 03 38 3d b0 77 6c bd
       0.02627507 0.032615315 0.044925228 -0.05773133
0001a0 de 73 6c 3c 08 74 1a 3d 4d b7 6b 3c 5c 3a 41 bd
       0.014431922 0.037708312 0.014386964 -0.047174796
0001b0 aa ee 3b 3d 65 8b 87 bc fc 67 76 3d 24 2f 42 bd
       0.045881905 -0.01654596 0.06015776 -0.047408238
0001c0 73 33 b9 bc 64 9e 63 bd aa 18 56 3d 37 57 88 3d
       -0.02260754 -0.055570975 0.052269615 0.0665726
0001d0 a3 38 54 bd 13 76 2b bd 94 1f be 3b a2 4a 1b 3c
       -0.051811825 -0.04186065 0.0058021042 0.009478243
0001e0 e6 c9 96 3d 6e 53 4b 3d b9 ea 57 3d 69 3b 20 bd
       0.07362728 0.04964011 0.052714083 -0.039119158
0001f0 89 11 34 ba b3 1a a2 bc f1 ac 36 bd de 03 0c 3d
       -0.0006869068 -0.019788122 -0.044598524 0.034183376
000200 82 82 4a bd 1e ef 42 3c ec c5 a8 3c 0e 09 2c 3d
       -0.04944087 0.01189783 0.020602189 0.042000823
000210 f7 46 1c 3d 0e ad 43 3c c5 86 7e bb db 92 61 3d
       0.038153615 0.011943115 -0.0038837653 0.055071693
000220 f8 dd a4 3c 05 cf 41 3d 76 be 5d bd d3 2b 35 bc
       0.020125374 0.04731657 -0.054136716 -0.011057812
000230 26 4f d2 3c 66 06 fd bc 22 3f 9b 3c 50 1a 2b 3d
       0.025672507 -0.03088684 0.018951003 0.04177314
000240 f9 0d 05 bc 21 e5 fc ba e6 62 33 bd 3a d5 a3 bc
       -0.008121007 -0.001929436 -0.04379549 -0.019999135
000250 5e bd d0 3c 9e 55 95 3d 86 27 40 bc ff 55 eb 3c
       0.025480922 0.07291721 -0.011728173 0.02872753
000260 7f d3 fe bc 72 f3 9f bc 15 05 5b 3c 9d fe 20 3d
       -0.031106709 -0.019525263 0.013367911 0.03930532
000270 f2 c5 ad bd 81 3e 42 bd 77 bc cf bb 7a 70 78 3d
       -0.08485021 -0.04742289 -0.0063396054 0.06065414
000280 8f 3f 08 bd 0c 03 fe 3c 74 14 96 3c 04 e1 9b 3c
       -0.03326374 0.031007312 0.0183203 0.019028194
000290 1f b3 16 3d 32 3d 7f 3c 5d b3 c6 3c 17 e4 45 3d
       0.036791917 0.015578555 0.024255449 0.048313227
0002a0 63 1d 9b 3c fe 98 67 bc 7f 61 0c bc de ac 2e 3d
       0.018934911 -0.014135597 -0.008568167 0.042645328
0002b0 e2 c3 d8 3c 7a ae f8 3b f8 12 a2 3c ff 07 3b 3d
       0.026460592 0.0075891586 0.019784436 0.045661923
0002c0 bf 1b 3a 3d 11 6a a8 bd dc d4 61 bd 8b 15 12 bd
       0.045436617 -0.082233556 -0.05513464 -0.035665076
0002d0 4f 7d e6 3c 1a e9 88 3d 15 72 e9 bc c8 2b 65 3c
       0.028135924 0.066850856 -0.028496781 0.013987489
0002e0 28 a9 75 bd 43 b1 12 bd 23 1a a0 bc 46 ea c0 bc
       -0.059975773 -0.03581358 -0.019543713 -0.02354921
0002f0 85 50 49 bd a5 a3 15 bd ab bb 16 bd 90 92 e9 3c
       -0.049149055 -0.036533017 -0.036800068 0.02851227
000300 bd 8e 4f 3d fc cd 43 bd 0e a8 d1 3b 2e 59 8a 3d
       0.050673235 -0.047803864 0.0063982075 0.06755291
000310 aa ee 11 3c 97 4f c3 3c 85 56 8e bc 6c f3 e3 3c
       0.008907 0.023841662 -0.01737524 0.027826034
000320 d4 2b 1b bd 2e a9 d7 bc 2b f0 be 3c 5d 61 2a 3d
       -0.037883595 -0.026325788 0.02330788 0.04159676
000330 94 81 dd bb 52 0b 59 3d 76 34 79 3c b3 ec 16 3c
       -0.0067598317 0.05298931 0.015210262 0.009211707
000340 73 61 5b 3d 7b 5c 4c bd 82 35 06 3d 17 c5 09 bd
       0.05355973 -0.049892884 0.032765873 -0.033635225
000350 ab 19 48 bd 76 a8 a0 bd 10 8d 85 3d 72 31 28 bd
       -0.048852604 -0.078446314 0.06521046 -0.04106278
000360 01 82 2b bd cf ce 14 bd 1d ba 92 bc 50 33 97 3d
       -0.04187203 -0.03633004 -0.017911011 0.07382834
000370 e7 12 57 3d ea 64 75 3c 3a 42 c3 3b 4b e2 db 3c
       0.05250826 0.014977673 0.0059588226 0.026841303
000380 96 2f ab 3c 9a 69 bd 3d 5b 7c 13 3d e2 6b 7d 3d
       0.020896714 0.092486575 0.036007266 0.061870463
000390 94 0c 2a bd 66 73 1d 3d d4 d8 09 3d 9a 20 1d 3d
       -0.0415159 0.03844013 0.03365405 0.03836117
0003a0 7a c5 22 3d af b2 64 bd 2a 2f 18 3d 33 1f a3 bc
       0.03973911 -0.05583447 0.037154354 -0.019912338
0003b0 0e d3 ba bc 60 82 2a bc 66 eb 22 bd 2d b2 74 3c
       -0.022805717 -0.01040706 -0.039775275 0.014935059
0003c0 00 40 0f 3c 5c 66 99 3d 85 7c d3 3c 30 9f 55 3d
       0.008743286 0.074902266 0.025816211 0.052153766
0003d0 cc 2a 70 3b 4c 31 83 3d ec 60 66 bc 6f 7d 80 bd
       0.0036646603 0.06405887 -0.014061194 -0.062739246
0003e0 94 7d ec 3b a5 6e 9d 3b c0 d9 d9 bc 57 b5 e8 bc
       0.0072171185 0.0048044496 -0.02659309 -0.028406782
0003f0 54 e2 5f 3d 11 f3 18 3d 72 dc 3c bb d0 c6 93 ba
       0.054659203 0.03734118 -0.002881792 -0.0011274461

fc1.bias f4 [128]
000000 e3 3b f1 3c 2a cb 45 bd dd d7 5e bd 3e 63 e1 3c
       0.029447502 -0.048289455 -0.054405082 0.027513143
000010 da d4 64 bb 80 d3 8d 3b b1 10 4a 3d d3 cc 6c bd
       -0.0034916908 0.0043281913 0.049332324 -0.057812523
000020 3b fd a6 3c 25 a8 7f bd 6f 46 59 bc 9e 0d 14 3c
       0.020384422 -0.062416214 -0.013261422 0.00903645
000030 c9 73 47 3c 40 f2 b5 bb 37 8e 4e bc eb 5b 35 bd
       0.012173601 -0.00555256 -0.012607149 -0.044277113
000040 1c 88 0a bd ad e3 6a 3d df 68 81 3d b2 13 48 3c
       -0.03382121 0.057346035 0.06318831 0.012211727
000050 04 88 5d 3d 44 f5 ce 3b 62 22 c1 3c 68 af 28 bc
       0.054084793 0.006315859 0.023575965 -0.010295726
000060 27 d4 7d bd 2c 6a e6 3c 7b 38 70 bc a2 a2 8c 3d
       -0.061969902 0.028126799 -0.0146619035 0.06866957
000070 c8 18 c9 3c 5f 5d 0c 3c ad 66 b0 3b f0 c3 f6 3c
       0.02454795 0.008567183 0.0053833337 0.030122727
000080 98 72 7b 3d 89 71 b7 3c 22 6d 5b 3d d5 a4 2d bd
       0.061388582 0.022393005 0.053570874 -0.042393524
000090 08 61 a8 bc bc f6 65 bd 09 d5 13 ba c6 6a 30 3d
       -0.02055408 -0.056143507 -0.00056393497 0.043070577
0000a0 26 7a 7f bd fd 61 7d 3d a7 6a 52 3d 2f 6e 89 3d
       -0.06237235 0.061861027 0.051371243 0.06710469
0000b0 d1 1b 89 3d 02 dd 02 bd e9 06 4d bd 35 f0 a0 3b
       0.06694759 -0.03194905 -0.05005542 0.0049114474
0000c0 39 e9 39 bd 82 a2 6c bd f4 0e 59 bc 58 7f 1f 3d
       -0.045388434 -0.057772167 -0.013248194 0.038939804
0000d0 1a 51 c6 bc a6 1a ec 3c d5 74 da 3c 90 33 39 bc
       -0.024208594 0.0288213 0.026667038 -0.011303797
0000e0 4c ea 90 3c 1c 33 a3 bb ba 6b e9 bc 30 35 96 3d
       0.017689846 -0.004980458 -0.02849375 0.073343635
0000f0 5d 17 14 bd 2d 67 1e bd 9d 95 b3 bc 1e b2 2a bd
       -0.036155093 -0.038672615 -0.021921927 -0.041673772
000100 9b 70 2c 3c 30 3a 2a 3d ed a3 bb 3c 72 97 37 bd
       0.010524894 0.0415594 0.022905314 -0.044822164
000110 ef f4 39 bc 5c ed cc 3c 81 29 a1 bc db e5 41 bd
       -0.011349901 0.025015526 -0.01967311 -0.047338348
000120 56 6c 35 bd bf dd 9c bc 58 7a 05 3c b1 7e d4 ba
       -0.04429277 -0.019148706 0.008146845 -0.0016212073
000130 c6 38 81 bc cb ac 04 3d 3d c3 2d bc c0 2e 2d 3d
       -0.015774142 0.03239135 -0.01060563 0.042280912
000140 b4 79 da 3c 97 08 77 3d ff d0 af 3c 18 3d ff bb
       0.02666936 0.060310926 0.021461962 -0.0077892654
000150 0c fa 0a bb fe 3c 33 bd cd c7 ae 3a a4 d0 54 bd
       -0.0021206168 -0.04375934 0.0013334692 -0.051956788
000160 8e 35 7d 3b 97 9f 74 3d 2c 4e d2 bc 6c 68 23 bd
       0.0038636657 0.05972251 -0.02567204 -0.039894506
000170 38 df 3b 3c 98 98 e0 bc 1e aa 82 bd e8 18 23 3c
       0.011466794 -0.027416512 -0.063801035 0.009954669
000180 d0 9f 31 bd b6 23 1a 3d 33 38 6a bd 59 01 56 bd
       -0.0433653 0.037631713 -0.057182502 -0.05224738
000190 0d 34 75 3d f0 3a 87 3d 57 e3 24 3d c1 53 2a 3d
       0.059864093 0.06603038 0.04025587 0.04158378
0001a0 a9 18 2e bd c5 55 cf 3a 1a aa d4 3c 20 8c 38 3d
       -0.042503987 0.0015818408 0.025960017 0.04505551
0001b0 58 cf 71 bb 64 af 2c 3d 8a 7a ec bc b6 11 85 bd
       -0.0036897268 0.042159453 -0.028867025 -0.06497519
0001c0 be b5 1c 3d a3 86 ea bc 4a ac 63 bd 63 30 36 3d
       0.03825926 -0.028628653 -0.05558423 0.04447974
0001d0 a7 22 26 3c ea 55 63 3d 82 8b 66 bd d2 95 9a bc
       0.010140098 0.055501856 -0.05628539 -0.018870268
0001e0 38 4b ce bc a6 84 1a bb 84 14 67 bc 0e e7 7f 3d
       -0.025182351 -0.00235776 -0.014104012 0.06247621
0001f0 a4 d7 b4 3c 9f f5 51 bd b0 8d 86 bd 72 70 88 bb
       0.022075482 -0.051259633 -0.065699935 -0.004163795

fc2.weight f4 [64, 128]
000000 79 2f 71 bd 08 11 ad 3c 37 37 5b 3d 62 59 a2 bc
       -0.058883164 0.021126285 0.053519454 -0.019818012
000010 e1 a4 5f 3d f1 97 61 bd b2 a0 b1 3d 77 60 04 bd
       0.0546006 -0.055076543 0.08673228 -0.03231856
000020 22 bc e6 bc 2e 11 51 bd ca bd 90 bd f9 c2 14 3c
       -0.02816588 -0.051041774 -0.070674494 0.009079688
000030 10 fc 18 bc 51 c6 1a bd d9 52 5c bd cd d2 91 bd
       -0.00933744 -0.037786786 -0.053789947 -0.07120285
000040 f4 e8 fd 3c 9e b1 85 3b c4 50 85 3d c4 e7 2e 3d
       0.03099487 0.0040800115 0.065095454 0.042701498
000050 04 f2 b1 bd 04 f7 be 3c 6d 40 ab 3c 17 f8 65 3b
       -0.08688739 0.023311146 0.020904744 0.00350905
000060 60 01 81 3d 18 c8 f0 bc 9a 4c ef 3c 04 dc 6c 3c
       0.062990904 -0.029392287 0.029211331 0.014456753
000070 2f c5 34 3d d4 ad 99 3c 42 90 0c 3d 9c ea 25 bd
       0.04413336 0.018759646 0.034317262 -0.040506944
000080 8f 8f 9e 3d 2e c5 1c bd 82 00 96 bd 02 44 89 bd
       0.077422254 -0.038273983 -0.073243156 -0.067024246
000090 80 39 9d 3a ef 08 1b 3c 7a c5 74 bd 4f 44 29 3d
       0.0011995286 0.009462579 -0.05975864 0.04132491
0000a0 09 b8 94 3d 27 b8 28 bd a6 87 63 bc e6 b5 42 3d
       0.072616644 -0.041191246 -0.013887322 0.047536753
0000b0 52 b8 25 bd b6 5a 51 bd 22 6f 36 3c a0 f4 94 bd
       -0.040458985 -0.0511119 0.011134895 -0.07273221
0000c0 7f 14 04 bd 86 54 80 bd ee 36 d8 bc 8d 44 11 bd
       -0.03224611 -0.062661216 -0.02639338 -0.035465766
0000d0 aa 0d 1b 3d 97 c0 04 3d 87 40 ad bd 82 7a d7 3b
       0.037854828 0.03241023 -0.08459573 0.0065758834
0000e0 ed 63 7e bd d4 3d 9e 3d e2 cc 7b bd bb bc 83 3d
       -0.062107015 0.077266365 -0.06147469 0.06432482
0000f0 e1 87 22 bd 1b d9 ea 3b b2 78 21 3d d3 8c 97 bd
       -0.039680365 0.0071669943 0.039421745 -0.07399907
000100 a0 b8 6c bb ea 76 85 bd 5e 8a 25 bd 13 2c 49 bc
       -0.0036120787 -0.06516822 -0.04041516 -0.0122785745
000110 55 0c 81 bd b8 5e 45 bd e6 48 83 3d 7e cd 89 3d
       -0.0630118 -0.048186034 0.06410389 0.06728648
000120 ec d7 d9 3c b8 6c 24 3c 60 b6 3c 3b db 73 8b bd
       0.026592217 0.010035686 0.0028795227 -0.06809207
000130 b9 ad 7a bd 56 b1 cf bc 35 2b 02 3d 79 86 27 bd
       -0.06120083 -0.025353115 0.031779487 -0.040899727
000140 2b e3 9e 3d 44 8d a4 3c 88 25 5b bc 1c 84 c5 bb
       0.077581726 0.020086892 -0.013375647 -0.0060277116
000150 3d 06 56 bd e0 2f 83 bd b5 8d d2 3c aa 05 50 3d
       -0.052252043 -0.06405616 0.025702337 0.05078665
000160 0c f2 08 bd 9f 3b a6 bd 3e 77 ad bb 86 0d a2 bd
       -0.03343396 -0.081168406 -0.005293756 -0.07912736
000170 85 6b e2 3c 6f 0b 7a bd c3 4f 92 3d 47 96 de 3c
       0.02763916 -0.06104606 0.071441196 0.027171267
000180 7c 3b c9 3c 5f d5 85 bd 3c 2d 23 bb cf 27 19 3d
       0.024564497 -0.06534838 -0.0024898788 0.03739148
000190 f5 e2 ab bc 34 9b 19 bd 5f 6a ef bc 82 e2 f4 bc
       -0.020982245 -0.03750153 -0.029225526 -0.029893164
0001a0 8c f7 f9 3c 27 ff 5b bd dc ed 1b 3d d3 1c 7e 3d
       0.030513547 -0.05371013 0.038068637 0.062039208
0001b0 36 59 91 bc ed 56 fa 3c a9 20 11 3c 43 75 21 3d
       -0.017742734 0.030559028 0.008857884 0.03941847
0001c0 dd 26 3e bd 47 67 80 3c 47 f6 0d 3b d2 8b 2b bd
       -0.04642378 0.015674246 0.0021661685 -0.04188139
0001d0 e0 32 c7 bc 15 8f d0 3b 28 66 6c bb 42 8a 72 bd
       -0.024316251 0.006364713 -0.0036071632 -0.059213884
0001e0 7f a7 90 bc c0 a1 83 3d 82 85 fc 3c 32 c2 a6 bd
       -0.017657993 0.06427336 0.03082538 -0.081425086
0001f0 ea 96 9c bd 95 5c 82 bb 5f 9b 95 bd ef 45 98 bb
       -0.07645972 -0.003978322 -0.07305025 -0.0046470086
000200 f7 6f a3 bd 49 eb 9c bd c5 42 5e bd 13 2f 66 bd
       -0.0798034 -0.076620646 -0.054262895 -0.056197237
000210 ae 23 ae bc 66 fc 27 3d 96 8a a3 bd 2e a7 04 bc
       -0.021257248 0.04101219 -0.079854175 -0.008096499
000220 e0 12 7e 3d d7 ba 2a 3b 9e d5 48 3d c7 47 1b bc
       0.06202972 0.0026051307 0.049031846 -0.009477562
000230 af 26 54 3c 52 98 99 3d ec c4 10 bd 0a 8f d4 bd
       0.012948676 0.07499756 -0.03534405 -0.10378845
000240 51 59 41 bd e5 14 88 bd 94 5a 5b 3d 80 93 5e bd
       -0.04720432 -0.0664461 0.05355318 -0.054339886
000250 1f ec a0 3d 04 87 72 3d f7 9d a8 bd 39 f1 bf bd
       0.078575365 0.059210792 -0.082332544 -0.093721814
000260 16 60 c3 bd ff 7a 7c 3d f2 7e a8 bd f2 02 20 bd
       -0.09539811 0.061640736 -0.08227338 -0.03906531
000270 65 43 0d bd 11 be 9d bd 58 22 b9 bd f5 a6 b7 3c
       -0.0344881 -0.07702268 -0.09039754 0.022418479
000280 62 c8 28 bd 0e d7 b1 bd 98 84 9f 3c d9 30 c5 bc
       -0.041206725 -0.086835966 0.019472405 -0.024071144
000290 01 e4 77 bd 1c b0 0a 3d 9f 28 8b 3d 00 b6 cd 3c
       -0.060520176 0.033859357 0.06794857 0.025111198
0002a0 3f f3 81 3d b7 ba 24 3c 43 bd ad bd 6c 0b fd 3d
       0.06345224 0.010054282 -0.084833644 0.12355694
0002b0 c0 78 47 3d 82 eb 5b 3d 64 c6 13 bc d0 74 44 bd
       0.04869914 0.053691395 -0.009019468 -0.047962964
0002c0 04 f6 31 3d 1f 7c 92 3d 41 3b cc 3d 5b 2a 94 3c
       0.04344751 0.071525805 0.09972239 0.018086603
0002d0 6e 40 75 bd ee 96 16 3d 3f cb a0 bd 69 69 4a bd
       -0.059875898 0.03676503 -0.07851266 -0.049416933
0002e0 be e8 55 3d 8f 48 2f 3d f5 24 6c 3d 31 af 62 bd
       0.052223913 0.042793807 0.057652432 -0.055342857
0002f0 ef 23 0e bd c3 1e 42 bd d8 82 04 bd 77 b8 9e bc
       -0.034702238 -0.047392618 -0.032351345 -0.019375069
000300 b7 64 54 3c c3 ee 59 bd a3 36 67 3d 5a c1 a0 bc
       0.012963465 -0.053206217 0.05644859 -0.019623447
000310 bc 9a 33 3d 37 5f b8 3d 29 04 ff bc 8b a3 c8 bd
       0.043848738 0.09002536 -0.031129913 -0.09796818
000320 fe 3d 3e 3d 57 23 27 3d b6 ff 91 bd 47 9d a6 bb
       0.04644584 0.040805187 -0.07128851 -0.005084667
000330 fc b1 a5 3d 5f 09 10 3c 4f 5d eb 3d 9c 6b 8f bd
       0.080905885 0.008791297 0.114924066 -0.07002947
000340 b5 76 04 3d 24 61 8b bd 0b a0 e3 3d 82 da 33 bd
       0.03233977 -0.068056375 0.1111451 -0.043909557
000350 1d fe 6f bd 6c 99 85 bd e9 39 b4 bd 68 7b 73 bd
       -0.05859195 -0.065234035 -0.08800108 -0.05944386
000360 68 a9 d2 bc 47 93 91 3d 0e b4 a4 bd f8 46 37 bd
       -0.025715545 0.07108169 -0.08042155 -0.044745415
000370 bf 89 16 3d c3 c4 2b 3d d2 81 44 bd 72 b8 48 bd
       0.03675246 0.041935693 -0.04797537 -0.049004026
000380 8c 37 f1 3b b4 8c b2 3d ed 02 9b 3d d5 e5 c9 bd
       0.007361358 0.08718243 0.075689174 -0.0985829
000390 f4 dc 77 3b 05 ce e8 3d 02 4d cd bc 08 bf c3 3d
       0.0037820907 0.1136742 -0.025061134 0.09557921
0003a0 dc c2 fa 3d 5c 34 f0 bc 3b 9f 9a 3d e0 c6 86 bd
       0.12244198 -0.029321842 0.07549902 -0.06580901
0003b0 0f a7 77 3d 62 84 44 3d bc 8d c2 3d e0 cb 2c bd
       0.060462054 0.047977813 0.0949969 -0.042186618
0003c0 d0 97 55 3d 0a cd 44 3d f1 0f 95 3d 44 10 85 bc
       0.052146733 0.048047103 0.07278431 -0.016243108
0003d0 fb 06 ac bd bb ae 58 3d 74 76 16 bc ff 33 ae bd
       -0.08399769 0.05290101 -0.009183515 -0.08506011
0003e0 1e 2b 0c 3d c6 17 ad 3c 4c 29 a2 3d c3 e4 a6 3d
       0.034220807 0.0211295 0.07918033 0.081491016
0003f0 ea 00 93 bd 70 3d 05 3d 28 bf a3 3b 74 e1 cc 3c
       -0.07177909 0.032529294 0.004997153 0.025009848

fc2.bias f4 [64]
000000 47 05 6b bc 16 8e 46 bd a2 d8 75 bd 92 4b 51 3b
       -0.01434452 -0.048475347 -0.06002105 0.0031935913
000010 2e 05 90 bb fb ba cc 3c 33 23 dd 3d 86 1f 7a bd
       -0.0043951487 0.024991503 0.10797729 -0.06106522
000020 c8 64 a4 3d 09 63 b8 bc 11 05 09 bc 9b 7f 6b bd
       0.08027035 -0.022508161 -0.008363024 -0.05749474
000030 ca 39 98 3d 4c d4 3d bd 5c dd 63 bd 29 3a aa 3d
       0.074328974 -0.04634504 -0.055631027 0.083118744
000040 87 bb eb bc c6 1a de 3d 91 58 25 3d a0 3c 98 3c
       -0.028775943 0.108449504 0.040367667 0.018583596
000050 68 8d 03 bd fe f0 a7 3d 06 34 5c 3d f7 e7 8f 3c
       -0.032117277 0.082002625 0.05376055 0.017566664
000060 d8 9d ab 3d 30 44 ab bd 17 4e 0e bc 88 64 10 bc
       0.08379716 -0.08362615 -0.00868561 -0.008813031
000070 56 51 d9 bc a9 56 4e 3d f4 38 70 3c e7 08 ac 3d
       -0.026528042 0.050375614 0.014662016 0.084001355
000080 3b f6 ad 3d 47 a9 fe 3d 89 79 47 3d 30 ae 4d bd
       0.0849423 0.12434631 0.04869989 -0.050214946
000090 99 0c aa bd bc 25 b7 3d 65 20 31 3d f7 69 4b 3d
       -0.08303184 0.08942744 0.043243784 0.049661603
0000a0 39 65 d7 3c b7 8e e8 3d 6d 5c 82 bd 2b e5 2a bc
       0.026293384 0.11355346 -0.06365285 -0.010430614
0000b0 47 40 52 3d d7 4b 80 bd fc 33 6a bb 6e ba dc 3a
       0.05133083 -0.06264465 -0.0035736552 0.0016840228
0000c0 94 92 41 bd 6a 30 86 3d e5 13 88 bd c8 92 27 3d
       -0.04725893 0.06552203 -0.066444196 0.040911466
0000d0 e3 70 1c 3c bb 23 d2 bd 9a 4c c0 3c ad 0e e8 bc
       0.009548399 -0.10260721 0.023474026 -0.02832731
0000e0 d2 37 c1 3c 93 65 9b bd 8a 72 8b 3c 1d 76 37 bd
       0.023586188 -0.07587733 0.01702239 -0.044790376
0000f0 65 be a0 3c fb 89 33 3c ad d2 2c bd 1f e0 84 bd
       0.019622037 0.01095819 -0.042193104 -0.0648806

fc3.weight f4 [10, 64]
000000 41 9a bd ba db 4c e0 bd e0 8c b1 3a e0 0a 67 be
       -0.0014465527 -0.10952159 0.0013546012 -0.22562742
000010 67 01 a5 3d d5 c8 8d 3d c1 98 8a bd 29 db 20 bd
       0.08056908 0.06923071 -0.06767417 -0.039271507
000020 31 7f cf bb 28 54 d1 3c e0 82 3b be 80 6a da bd
       -0.006332301 0.025552824 -0.18311644 -0.106648445
000030 ae 64 f8 3d e6 75 6c bd c3 ee fd bd b2 d5 b6 ba
       0.12128578 -0.057729624 -0.12399056 -0.0013949184
000040 bd 70 52 bc 83 94 a6 bd 66 67 25 3e 63 e0 0e be
       -0.012844262 -0.08133795 0.16152725 -0.13952784
000050 26 d6 e6 3d cf 50 f9 bd ae 2e c7 bd 45 a9 fe bd
       0.11271314 -0.12173616 -0.097257 -0.12434629
000060 71 14 8b 3d 49 5c a1 bd 94 25 a5 3e 32 9a dc 3d
       0.06791008 -0.0787893 0.32255232 0.10771598
000070 98 5d d6 bd 11 b9 00 3d 6e ae 78 be 55 ec ef bc
       -0.1046707 0.031426493 -0.2428529 -0.029287497
000080 5b f3 50 3d 54 84 12 be 8b 83 02 3d 6c 65 1f bd
       0.05101333 -0.14308292 0.03186373 -0.038915083
000090 72 6e e1 3d f6 b8 c6 3d 29 d7 1d be 08 71 29 3e
       0.11007394 0.09703247 -0.15414108 0.16547024
0000a0 a9 37 43 3e 3c 5e 61 be c4 2a 0c 3e e7 a3 46 be
       0.19064201 -0.22008604 0.13688189 -0.19398461
0000b0 6e a9 34 bc 52 ff cb bd 2f 50 8d 3d 89 a0 90 bd
       -0.011026723 -0.09960808 0.069000594 -0.0706187
0000c0 c0 e9 a4 3d 5a 6e 82 be 79 79 ed 3d b9 a7 2c be
       0.08052397 -0.25474817 0.11595435 -0.16860856
0000d0 17 fb 41 3e f4 99 ba bc b0 6f 7f 3d 7f fb d8 3d
       0.1894344 -0.022778489 0.062362373 0.10594844
0000e0 84 f1 13 3e e9 04 ab bd e1 56 aa bd d5 af 28 3d
       0.144476 -0.08350546 -0.08317352 0.04118331
0000f0 99 43 8a 3d 50 36 2c 3e 9c 37 03 3d c8 6a 4a 3e
       0.067511745 0.16817594 0.032035455 0.19767296
000100 cc a9 83 3c 03 f0 0a 3c 7f 21 27 bd 62 1c ee bd
       0.016072176 0.008480075 -0.04080343 -0.11626507
000110 c4 42 01 3d 72 0b d0 3d 1d a2 a8 3d a6 3b 9f bd
       0.031557813 0.10158433 0.08234046 -0.07775049
000120 a9 d2 3d 3e 67 28 e0 bc 30 4e 44 be 62 7a 6c 3d
       0.18537392 -0.027363015 -0.19170451 0.0577339
000130 34 ee 75 3d 5c 38 34 bd cd b6 22 be ac 9f 8b 3e
       0.06004162 -0.04399906 -0.15890045 0.27270257
000140 ee 0e 42 be 5f fc 76 3e 5d b4 51 bc db bf 36 be
       -0.18951008 0.2411971 -0.01279935 -0.17846625
000150 2f 57 03 3e 2d 54 a1 3d e6 0b 46 bd 8e 78 ed 3d
       0.12826227 0.078773834 -0.04835119 0.115952596
000160 23 df 8c 3e 6e 42 72 3d 12 24 61 3e 1e 97 be 3d
       0.2751399 0.059145384 0.21986416 0.09306167
000170 9d 6a 93 3d 24 e4 de 3d 78 cf 87 3d 7c e3 39 bb
       0.07198069 0.10883358 0.066313684 -0.002836435
000180 62 13 3b 3e b3 14 27 3e 0e 2a 42 bd 04 53 fd bd
       0.18269113 0.1631649 -0.047403388 -0.123693496
000190 4f 9c 0c be 03 e7 e3 3d bd 43 2a 3e 5d 5a 43 be
       -0.13731502 0.11128046 0.16627403 -0.1907744
0001a0 e3 45 2f be e8 72 56 3e 4e 39 21 be e1 fa 32 be
       -0.17116503 0.20942271 -0.15744516 -0.17478515
0001b0 1a d1 51 be 82 e5 b3 3d 7c 56 ae 3d 48 8e 56 3e
       -0.20489922 0.087840095 0.08512589 0.20952713
0001c0 f9 5f 28 3d 90 65 f0 bd b2 d0 2f 3d 98 28 42 3d
       0.04110715 -0.117381215 0.042923637 0.047401994
0001d0 17 9e 16 be 76 ca 5f 3d 1d 76 83 bd b5 2b 9f 3d
       -0.14708744 0.05463644 -0.06419013 0.07772008
0001e0 dc 0a b9 be ef 97 08 be ad 38 ee 3d 91 14 92 3d
       -0.36141098 -0.13339208 0.11631904 0.07132829
0001f0 2f 92 3a be ba cd 22 be 75 9e 85 bd 05 57 ae 3d
       -0.18219827 -0.15898791 -0.06524364 0.085126914
000200 a8 50 c1 3d b7 f9 cb bd 05 8f 9b 3c cf 42 4b 3e
       0.09439212 -0.09959739 0.018989095 0.19849704
000210 32 16 ca bd f5 76 ac bd e0 99 02 be 33 32 be bb
       -0.09867515 -0.08421127 -0.12754011 -0.005804324
000220 70 3d de 3d 37 a2 df 3c 81 5f 00 3e 41 b0 bf bd
       0.10851562 0.02729903 0.12536432 -0.0935979
000230 a6 cf bf 3d 24 7c b3 bb 77 a3 0b be 81 d4 0b 3e
       0.09365778 -0.005477445 -0.13636576 0.13655283
000240 bf a0 c3 3d f6 f9 2b bd a3 db ed bd ff 80 18 bd
       0.09552144 -0.04198643 -0.11614158 -0.037232395
000250 82 55 d9 3d c2 d6 48 3c 09 43 0a bd 63 16 96 3c
       0.106120124 0.0122582335 -0.033755336 0.018321222
000260 cc da 64 3e f7 13 30 3e c3 61 13 3e a1 00 f5 bd
       0.2234909 0.17195116 0.14392762 -0.119630106
000270 03 04 60 3d 4a 70 9c bd d9 09 12 be 42 ee a4 3e
       0.054691326 -0.07638605 -0.14261569 0.32213026
000280 fa b4 54 3c a9 a7 88 bd ba 2e d5 bd 4e 07 92 3d
       0.012982601 -0.06672604 -0.10409303 0.071302995
000290 98 e5 86 bb a3 9c 71 be c3 bc 15 3e 12 8e 12 be
       -0.004116725 -0.23594908 0.14622788 -0.14312008
0002a0 64 7d 82 be ef ea 4d bc b9 06 06 be cb 58 fe 3d
       -0.2548629 -0.01256822 -0.13088502 0.1241928
0002b0 ab b4 31 3e 80 04 a8 bd 78 87 a5 bc 4a 7f 38 3d
       0.17354076 -0.08203983 -0.020206198 0.045043267
0002c0 45 e9 93 3d ad fa 2b be cc a5 a7 bd 61 2d b2 be
       0.07222227 -0.16794844 -0.0818592 -0.34800246
0002d0 2c 55 39 3e 18 68 34 3d de 3b aa bd 22 d0 b0 3b
       0.18098897 0.044044584 -0.083122 0.005395905
0002e0 94 fb 82 3d 68 48 9d 3d 4d 90 80 3d 04 7e 2b bd
       0.06395641 0.07679826 0.06277523 -0.041868225
0002f0 6a f5 50 3e 80 cd 21 3e 31 f6 47 be 05 3f 90 bd
       0.20406118 0.15801048 -0.19527508 -0.0704327
000300 ee 6c a0 3d 24 a9 55 3e 96 84 78 3d 14 f8 09 3e
       0.07833277 0.20865303 0.06067332 0.1347354
000310 54 75 28 be 4f dc a8 bc 5e ec a3 3c cf e1 c2 3d
       -0.16451007 -0.020612864 0.02001017 0.09515726
000320 a7 2f 32 be 90 c1 f0 3c cf 9a 49 3e 0e e0 db 3d
       -0.1740099 0.029389173 0.19687961 0.107360944
000330 77 4d c8 3d df e0 1b bd e5 c7 2c 3e ff 79 f8 bd
       0.097804 -0.03805625 0.16873129 -0.12132644
000340 69 33 a6 3d 7c bc 5b 3e 85 08 21 3e f7 9e 63 3d
       0.081152745 0.2145862 0.15725906 0.055571523
000350 df a4 5f bd 9e 3e 85 be 67 ff c9 bd 2a a1 87 bd
       -0.054600593 -0.26024336 -0.09863167 -0.066225365
000360 2f d2 87 3c 76 a9 24 be 3d 3e 83 be 27 3f c3 3c
       0.016579716 -0.16080269 -0.25633422 0.023833824
000370 cf 1c 11 3d e1 8d a5 3d b6 ce e9 3d b0 d2 40 be
       0.035427865 0.08083702 0.1141638 -0.18830371
000380 ab 43 41 be a9 57 42 be 3a 91 df bd 5c 38 0c bd
       -0.1887347 -0.18978752 -0.10916372 -0.034233436
000390 84 b2 90 bd 9a ba f4 bd 0e d2 f5 bc a1 86 92 bd
       -0.07065299 -0.11949654 -0.030007388 -0.07154585
0003a0 08 9f 14 be eb 7c 27 3e 15 fa 9d 3d 69 97 34 bd
       -0.1451379 0.16356246 0.07713715 -0.04408971
0003b0 12 dd 56 bd 6f ce e2 3d e8 0d f0 bd 1a b3 3b bd
       -0.052456923 0.1107453 -0.117214024 -0.0458251
0003c0 52 e3 67 3d 50 ec 19 be b5 28 17 be 90 84 69 3e
       0.056613274 -0.15031552 -0.14761622 0.22804475
0003d0 fd c4 db 3d c8 46 8e 3d 3a 4d 84 bd e1 24 08 3e
       0.10730932 0.06947094 -0.06460042 0.13295318
0003e0 7a 69 7f bd 0d d3 90 bd 18 58 5d 3d 07 07 d8 3c
       -0.06235645 -0.07071505 0.05403909 0.026370538
0003f0 4e b0 a4 bd c7 74 8d 3e 9c 65 61 3d cb 04 0b be
       -0.0804144 0.27628157 0.055028543 -0.13576047

fc3.bias f4 [10]
000000 82 ff 01 bd 19 46 e9 3d 3e 16 d7 bd 2b 9e ff 3c
       -0.031737812 0.11390323 -0.10502289 0.03120335
000010 fc 11 5d bd d4 c8 72 bd 3b cc e8 3c 03 a9 bc 3c
       -0.05397223 -0.059273556 0.028417697 0.02302981
000020 32 1a 50 bd c7 11 6e bd
       -0.05080623 -0.058122423
